InternImage(
  (patch_embed): StemLayer(
    (conv1): Conv2d(3, 40, kernel_size=(3, 3), stride=(2, 2), padding=(1, 1))
    (norm1): Sequential(
      (0): to_channels_last()
      (1): LayerNorm((40,), eps=1e-06, elementwise_affine=True)
      (2): to_channels_first()
    )
    (act): GELU(approximate=none)
    (conv2): Conv2d(40, 80, kernel_size=(3, 3), stride=(2, 2), padding=(1, 1))
    (norm2): Sequential(
      (0): to_channels_last()
      (1): LayerNorm((80,), eps=1e-06, elementwise_affine=True)
    )
  )
  (pos_drop): Dropout(p=0.0, inplace=False)
  (levels): ModuleList(
    (0): InternImageBlock(
      (blocks): ModuleList(
        (0): InternImageLayer(
          (norm1): Sequential(
            (0): LayerNorm((80,), eps=1e-06, elementwise_affine=True)
          )
          (dcn): DCNv3(
            (dw_conv): Sequential(
              (0): Conv2d(80, 80, kernel_size=(3, 3), stride=(1, 1), padding=(1, 1), groups=80)
              (1): Sequential(
                (0): to_channels_last()
                (1): LayerNorm((80,), eps=1e-06, elementwise_affine=True)
              )
              (2): GELU(approximate=none)
            )
            (offset): Linear(in_features=80, out_features=90, bias=True)
            (mask): Linear(in_features=80, out_features=45, bias=True)
            (input_proj): Linear(in_features=80, out_features=80, bias=True)
            (output_proj): Linear(in_features=80, out_features=80, bias=True)
          )
          (drop_path): Identity()
          (norm2): Sequential(
            (0): LayerNorm((80,), eps=1e-06, elementwise_affine=True)
          )
          (mlp): MLPLayer(
            (fc1): Linear(in_features=80, out_features=320, bias=True)
            (act): GELU(approximate=none)
            (fc2): Linear(in_features=320, out_features=80, bias=True)
            (drop): Dropout(p=0.0, inplace=False)
          )
        )
        (1): InternImageLayer(
          (norm1): Sequential(
            (0): LayerNorm((80,), eps=1e-06, elementwise_affine=True)
          )
          (dcn): DCNv3(
            (dw_conv): Sequential(
              (0): Conv2d(80, 80, kernel_size=(3, 3), stride=(1, 1), padding=(1, 1), groups=80)
              (1): Sequential(
                (0): to_channels_last()
                (1): LayerNorm((80,), eps=1e-06, elementwise_affine=True)
              )
              (2): GELU(approximate=none)
            )
            (offset): Linear(in_features=80, out_features=90, bias=True)
            (mask): Linear(in_features=80, out_features=45, bias=True)
            (input_proj): Linear(in_features=80, out_features=80, bias=True)
            (output_proj): Linear(in_features=80, out_features=80, bias=True)
          )
          (drop_path): DropPath()
          (norm2): Sequential(
            (0): LayerNorm((80,), eps=1e-06, elementwise_affine=True)
          )
          (mlp): MLPLayer(
            (fc1): Linear(in_features=80, out_features=320, bias=True)
            (act): GELU(approximate=none)
            (fc2): Linear(in_features=320, out_features=80, bias=True)
            (drop): Dropout(p=0.0, inplace=False)
          )
        )
        (2): InternImageLayer(
          (norm1): Sequential(
            (0): LayerNorm((80,), eps=1e-06, elementwise_affine=True)
          )
          (dcn): DCNv3(
            (dw_conv): Sequential(
              (0): Conv2d(80, 80, kernel_size=(3, 3), stride=(1, 1), padding=(1, 1), groups=80)
              (1): Sequential(
                (0): to_channels_last()
                (1): LayerNorm((80,), eps=1e-06, elementwise_affine=True)
              )
              (2): GELU(approximate=none)
            )
            (offset): Linear(in_features=80, out_features=90, bias=True)
            (mask): Linear(in_features=80, out_features=45, bias=True)
            (input_proj): Linear(in_features=80, out_features=80, bias=True)
            (output_proj): Linear(in_features=80, out_features=80, bias=True)
          )
          (drop_path): DropPath()
          (norm2): Sequential(
            (0): LayerNorm((80,), eps=1e-06, elementwise_affine=True)
          )
          (mlp): MLPLayer(
            (fc1): Linear(in_features=80, out_features=320, bias=True)
            (act): GELU(approximate=none)
            (fc2): Linear(in_features=320, out_features=80, bias=True)
            (drop): Dropout(p=0.0, inplace=False)
          )
        )
        (3): InternImageLayer(
          (norm1): Sequential(
            (0): LayerNorm((80,), eps=1e-06, elementwise_affine=True)
          )
          (dcn): DCNv3(
            (dw_conv): Sequential(
              (0): Conv2d(80, 80, kernel_size=(3, 3), stride=(1, 1), padding=(1, 1), groups=80)
              (1): Sequential(
                (0): to_channels_last()
                (1): LayerNorm((80,), eps=1e-06, elementwise_affine=True)
              )
              (2): GELU(approximate=none)
            )
            (offset): Linear(in_features=80, out_features=90, bias=True)
            (mask): Linear(in_features=80, out_features=45, bias=True)
            (input_proj): Linear(in_features=80, out_features=80, bias=True)
            (output_proj): Linear(in_features=80, out_features=80, bias=True)
          )
          (drop_path): DropPath()
          (norm2): Sequential(
            (0): LayerNorm((80,), eps=1e-06, elementwise_affine=True)
          )
          (mlp): MLPLayer(
            (fc1): Linear(in_features=80, out_features=320, bias=True)
            (act): GELU(approximate=none)
            (fc2): Linear(in_features=320, out_features=80, bias=True)
            (drop): Dropout(p=0.0, inplace=False)
          )
        )
      )
      (downsample): DownsampleLayer(
        (conv): Conv2d(80, 160, kernel_size=(3, 3), stride=(2, 2), padding=(1, 1), bias=False)
        (norm): Sequential(
          (0): to_channels_last()
          (1): LayerNorm((160,), eps=1e-06, elementwise_affine=True)
        )
      )
    )
    (1): InternImageBlock(
      (blocks): ModuleList(
        (0): InternImageLayer(
          (norm1): Sequential(
            (0): LayerNorm((160,), eps=1e-06, elementwise_affine=True)
          )
          (dcn): DCNv3(
            (dw_conv): Sequential(
              (0): Conv2d(160, 160, kernel_size=(3, 3), stride=(1, 1), padding=(1, 1), groups=160)
              (1): Sequential(
                (0): to_channels_last()
                (1): LayerNorm((160,), eps=1e-06, elementwise_affine=True)
              )
              (2): GELU(approximate=none)
            )
            (offset): Linear(in_features=160, out_features=180, bias=True)
            (mask): Linear(in_features=160, out_features=90, bias=True)
            (input_proj): Linear(in_features=160, out_features=160, bias=True)
            (output_proj): Linear(in_features=160, out_features=160, bias=True)
          )
          (drop_path): DropPath()
          (norm2): Sequential(
            (0): LayerNorm((160,), eps=1e-06, elementwise_affine=True)
          )
          (mlp): MLPLayer(
            (fc1): Linear(in_features=160, out_features=640, bias=True)
            (act): GELU(approximate=none)
            (fc2): Linear(in_features=640, out_features=160, bias=True)
            (drop): Dropout(p=0.0, inplace=False)
          )
        )
        (1): InternImageLayer(
          (norm1): Sequential(
            (0): LayerNorm((160,), eps=1e-06, elementwise_affine=True)
          )
          (dcn): DCNv3(
            (dw_conv): Sequential(
              (0): Conv2d(160, 160, kernel_size=(3, 3), stride=(1, 1), padding=(1, 1), groups=160)
              (1): Sequential(
                (0): to_channels_last()
                (1): LayerNorm((160,), eps=1e-06, elementwise_affine=True)
              )
              (2): GELU(approximate=none)
            )
            (offset): Linear(in_features=160, out_features=180, bias=True)
            (mask): Linear(in_features=160, out_features=90, bias=True)
            (input_proj): Linear(in_features=160, out_features=160, bias=True)
            (output_proj): Linear(in_features=160, out_features=160, bias=True)
          )
          (drop_path): DropPath()
          (norm2): Sequential(
            (0): LayerNorm((160,), eps=1e-06, elementwise_affine=True)
          )
          (mlp): MLPLayer(
            (fc1): Linear(in_features=160, out_features=640, bias=True)
            (act): GELU(approximate=none)
            (fc2): Linear(in_features=640, out_features=160, bias=True)
            (drop): Dropout(p=0.0, inplace=False)
          )
        )
        (2): InternImageLayer(
          (norm1): Sequential(
            (0): LayerNorm((160,), eps=1e-06, elementwise_affine=True)
          )
          (dcn): DCNv3(
            (dw_conv): Sequential(
              (0): Conv2d(160, 160, kernel_size=(3, 3), stride=(1, 1), padding=(1, 1), groups=160)
              (1): Sequential(
                (0): to_channels_last()
                (1): LayerNorm((160,), eps=1e-06, elementwise_affine=True)
              )
              (2): GELU(approximate=none)
            )
            (offset): Linear(in_features=160, out_features=180, bias=True)
            (mask): Linear(in_features=160, out_features=90, bias=True)
            (input_proj): Linear(in_features=160, out_features=160, bias=True)
            (output_proj): Linear(in_features=160, out_features=160, bias=True)
          )
          (drop_path): DropPath()
          (norm2): Sequential(
            (0): LayerNorm((160,), eps=1e-06, elementwise_affine=True)
          )
          (mlp): MLPLayer(
            (fc1): Linear(in_features=160, out_features=640, bias=True)
            (act): GELU(approximate=none)
            (fc2): Linear(in_features=640, out_features=160, bias=True)
            (drop): Dropout(p=0.0, inplace=False)
          )
        )
        (3): InternImageLayer(
          (norm1): Sequential(
            (0): LayerNorm((160,), eps=1e-06, elementwise_affine=True)
          )
          (dcn): DCNv3(
            (dw_conv): Sequential(
              (0): Conv2d(160, 160, kernel_size=(3, 3), stride=(1, 1), padding=(1, 1), groups=160)
              (1): Sequential(
                (0): to_channels_last()
                (1): LayerNorm((160,), eps=1e-06, elementwise_affine=True)
              )
              (2): GELU(approximate=none)
            )
            (offset): Linear(in_features=160, out_features=180, bias=True)
            (mask): Linear(in_features=160, out_features=90, bias=True)
            (input_proj): Linear(in_features=160, out_features=160, bias=True)
            (output_proj): Linear(in_features=160, out_features=160, bias=True)
          )
          (drop_path): DropPath()
          (norm2): Sequential(
            (0): LayerNorm((160,), eps=1e-06, elementwise_affine=True)
          )
          (mlp): MLPLayer(
            (fc1): Linear(in_features=160, out_features=640, bias=True)
            (act): GELU(approximate=none)
            (fc2): Linear(in_features=640, out_features=160, bias=True)
            (drop): Dropout(p=0.0, inplace=False)
          )
        )
      )
      (downsample): DownsampleLayer(
        (conv): Conv2d(160, 320, kernel_size=(3, 3), stride=(2, 2), padding=(1, 1), bias=False)
        (norm): Sequential(
          (0): to_channels_last()
          (1): LayerNorm((320,), eps=1e-06, elementwise_affine=True)
        )
      )
    )
    (2): InternImageBlock(
      (blocks): ModuleList(
        (0): InternImageLayer(
          (norm1): Sequential(
            (0): LayerNorm((320,), eps=1e-06, elementwise_affine=True)
          )
          (dcn): DCNv3(
            (dw_conv): Sequential(
              (0): Conv2d(320, 320, kernel_size=(3, 3), stride=(1, 1), padding=(1, 1), groups=320)
              (1): Sequential(
                (0): to_channels_last()
                (1): LayerNorm((320,), eps=1e-06, elementwise_affine=True)
              )
              (2): GELU(approximate=none)
            )
            (offset): Linear(in_features=320, out_features=360, bias=True)
            (mask): Linear(in_features=320, out_features=180, bias=True)
            (input_proj): Linear(in_features=320, out_features=320, bias=True)
            (output_proj): Linear(in_features=320, out_features=320, bias=True)
          )
          (drop_path): DropPath()
          (norm2): Sequential(
            (0): LayerNorm((320,), eps=1e-06, elementwise_affine=True)
          )
          (mlp): MLPLayer(
            (fc1): Linear(in_features=320, out_features=1280, bias=True)
            (act): GELU(approximate=none)
            (fc2): Linear(in_features=1280, out_features=320, bias=True)
            (drop): Dropout(p=0.0, inplace=False)
          )
        )
        (1): InternImageLayer(
          (norm1): Sequential(
            (0): LayerNorm((320,), eps=1e-06, elementwise_affine=True)
          )
          (dcn): DCNv3(
            (dw_conv): Sequential(
              (0): Conv2d(320, 320, kernel_size=(3, 3), stride=(1, 1), padding=(1, 1), groups=320)
              (1): Sequential(
                (0): to_channels_last()
                (1): LayerNorm((320,), eps=1e-06, elementwise_affine=True)
              )
              (2): GELU(approximate=none)
            )
            (offset): Linear(in_features=320, out_features=360, bias=True)
            (mask): Linear(in_features=320, out_features=180, bias=True)
            (input_proj): Linear(in_features=320, out_features=320, bias=True)
            (output_proj): Linear(in_features=320, out_features=320, bias=True)
          )
          (drop_path): DropPath()
          (norm2): Sequential(
            (0): LayerNorm((320,), eps=1e-06, elementwise_affine=True)
          )
          (mlp): MLPLayer(
            (fc1): Linear(in_features=320, out_features=1280, bias=True)
            (act): GELU(approximate=none)
            (fc2): Linear(in_features=1280, out_features=320, bias=True)
            (drop): Dropout(p=0.0, inplace=False)
          )
        )
        (2): InternImageLayer(
          (norm1): Sequential(
            (0): LayerNorm((320,), eps=1e-06, elementwise_affine=True)
          )
          (dcn): DCNv3(
            (dw_conv): Sequential(
              (0): Conv2d(320, 320, kernel_size=(3, 3), stride=(1, 1), padding=(1, 1), groups=320)
              (1): Sequential(
                (0): to_channels_last()
                (1): LayerNorm((320,), eps=1e-06, elementwise_affine=True)
              )
              (2): GELU(approximate=none)
            )
            (offset): Linear(in_features=320, out_features=360, bias=True)
            (mask): Linear(in_features=320, out_features=180, bias=True)
            (input_proj): Linear(in_features=320, out_features=320, bias=True)
            (output_proj): Linear(in_features=320, out_features=320, bias=True)
          )
          (drop_path): DropPath()
          (norm2): Sequential(
            (0): LayerNorm((320,), eps=1e-06, elementwise_affine=True)
          )
          (mlp): MLPLayer(
            (fc1): Linear(in_features=320, out_features=1280, bias=True)
            (act): GELU(approximate=none)
            (fc2): Linear(in_features=1280, out_features=320, bias=True)
            (drop): Dropout(p=0.0, inplace=False)
          )
        )
        (3): InternImageLayer(
          (norm1): Sequential(
            (0): LayerNorm((320,), eps=1e-06, elementwise_affine=True)
          )
          (dcn): DCNv3(
            (dw_conv): Sequential(
              (0): Conv2d(320, 320, kernel_size=(3, 3), stride=(1, 1), padding=(1, 1), groups=320)
              (1): Sequential(
                (0): to_channels_last()
                (1): LayerNorm((320,), eps=1e-06, elementwise_affine=True)
              )
              (2): GELU(approximate=none)
            )
            (offset): Linear(in_features=320, out_features=360, bias=True)
            (mask): Linear(in_features=320, out_features=180, bias=True)
            (input_proj): Linear(in_features=320, out_features=320, bias=True)
            (output_proj): Linear(in_features=320, out_features=320, bias=True)
          )
          (drop_path): DropPath()
          (norm2): Sequential(
            (0): LayerNorm((320,), eps=1e-06, elementwise_affine=True)
          )
          (mlp): MLPLayer(
            (fc1): Linear(in_features=320, out_features=1280, bias=True)
            (act): GELU(approximate=none)
            (fc2): Linear(in_features=1280, out_features=320, bias=True)
            (drop): Dropout(p=0.0, inplace=False)
          )
        )
        (4): InternImageLayer(
          (norm1): Sequential(
            (0): LayerNorm((320,), eps=1e-06, elementwise_affine=True)
          )
          (dcn): DCNv3(
            (dw_conv): Sequential(
              (0): Conv2d(320, 320, kernel_size=(3, 3), stride=(1, 1), padding=(1, 1), groups=320)
              (1): Sequential(
                (0): to_channels_last()
                (1): LayerNorm((320,), eps=1e-06, elementwise_affine=True)
              )
              (2): GELU(approximate=none)
            )
            (offset): Linear(in_features=320, out_features=360, bias=True)
            (mask): Linear(in_features=320, out_features=180, bias=True)
            (input_proj): Linear(in_features=320, out_features=320, bias=True)
            (output_proj): Linear(in_features=320, out_features=320, bias=True)
          )
          (drop_path): DropPath()
          (norm2): Sequential(
            (0): LayerNorm((320,), eps=1e-06, elementwise_affine=True)
          )
          (mlp): MLPLayer(
            (fc1): Linear(in_features=320, out_features=1280, bias=True)
            (act): GELU(approximate=none)
            (fc2): Linear(in_features=1280, out_features=320, bias=True)
            (drop): Dropout(p=0.0, inplace=False)
          )
        )
        (5): InternImageLayer(
          (norm1): Sequential(
            (0): LayerNorm((320,), eps=1e-06, elementwise_affine=True)
          )
          (dcn): DCNv3(
            (dw_conv): Sequential(
              (0): Conv2d(320, 320, kernel_size=(3, 3), stride=(1, 1), padding=(1, 1), groups=320)
              (1): Sequential(
                (0): to_channels_last()
                (1): LayerNorm((320,), eps=1e-06, elementwise_affine=True)
              )
              (2): GELU(approximate=none)
            )
            (offset): Linear(in_features=320, out_features=360, bias=True)
            (mask): Linear(in_features=320, out_features=180, bias=True)
            (input_proj): Linear(in_features=320, out_features=320, bias=True)
            (output_proj): Linear(in_features=320, out_features=320, bias=True)
          )
          (drop_path): DropPath()
          (norm2): Sequential(
            (0): LayerNorm((320,), eps=1e-06, elementwise_affine=True)
          )
          (mlp): MLPLayer(
            (fc1): Linear(in_features=320, out_features=1280, bias=True)
            (act): GELU(approximate=none)
            (fc2): Linear(in_features=1280, out_features=320, bias=True)
            (drop): Dropout(p=0.0, inplace=False)
          )
        )
        (6): InternImageLayer(
          (norm1): Sequential(
            (0): LayerNorm((320,), eps=1e-06, elementwise_affine=True)
          )
          (dcn): DCNv3(
            (dw_conv): Sequential(
              (0): Conv2d(320, 320, kernel_size=(3, 3), stride=(1, 1), padding=(1, 1), groups=320)
              (1): Sequential(
                (0): to_channels_last()
                (1): LayerNorm((320,), eps=1e-06, elementwise_affine=True)
              )
              (2): GELU(approximate=none)
            )
            (offset): Linear(in_features=320, out_features=360, bias=True)
            (mask): Linear(in_features=320, out_features=180, bias=True)
            (input_proj): Linear(in_features=320, out_features=320, bias=True)
            (output_proj): Linear(in_features=320, out_features=320, bias=True)
          )
          (drop_path): DropPath()
          (norm2): Sequential(
            (0): LayerNorm((320,), eps=1e-06, elementwise_affine=True)
          )
          (mlp): MLPLayer(
            (fc1): Linear(in_features=320, out_features=1280, bias=True)
            (act): GELU(approximate=none)
            (fc2): Linear(in_features=1280, out_features=320, bias=True)
            (drop): Dropout(p=0.0, inplace=False)
          )
        )
        (7): InternImageLayer(
          (norm1): Sequential(
            (0): LayerNorm((320,), eps=1e-06, elementwise_affine=True)
          )
          (dcn): DCNv3(
            (dw_conv): Sequential(
              (0): Conv2d(320, 320, kernel_size=(3, 3), stride=(1, 1), padding=(1, 1), groups=320)
              (1): Sequential(
                (0): to_channels_last()
                (1): LayerNorm((320,), eps=1e-06, elementwise_affine=True)
              )
              (2): GELU(approximate=none)
            )
            (offset): Linear(in_features=320, out_features=360, bias=True)
            (mask): Linear(in_features=320, out_features=180, bias=True)
            (input_proj): Linear(in_features=320, out_features=320, bias=True)
            (output_proj): Linear(in_features=320, out_features=320, bias=True)
          )
          (drop_path): DropPath()
          (norm2): Sequential(
            (0): LayerNorm((320,), eps=1e-06, elementwise_affine=True)
          )
          (mlp): MLPLayer(
            (fc1): Linear(in_features=320, out_features=1280, bias=True)
            (act): GELU(approximate=none)
            (fc2): Linear(in_features=1280, out_features=320, bias=True)
            (drop): Dropout(p=0.0, inplace=False)
          )
        )
        (8): InternImageLayer(
          (norm1): Sequential(
            (0): LayerNorm((320,), eps=1e-06, elementwise_affine=True)
          )
          (dcn): DCNv3(
            (dw_conv): Sequential(
              (0): Conv2d(320, 320, kernel_size=(3, 3), stride=(1, 1), padding=(1, 1), groups=320)
              (1): Sequential(
                (0): to_channels_last()
                (1): LayerNorm((320,), eps=1e-06, elementwise_affine=True)
              )
              (2): GELU(approximate=none)
            )
            (offset): Linear(in_features=320, out_features=360, bias=True)
            (mask): Linear(in_features=320, out_features=180, bias=True)
            (input_proj): Linear(in_features=320, out_features=320, bias=True)
            (output_proj): Linear(in_features=320, out_features=320, bias=True)
          )
          (drop_path): DropPath()
          (norm2): Sequential(
            (0): LayerNorm((320,), eps=1e-06, elementwise_affine=True)
          )
          (mlp): MLPLayer(
            (fc1): Linear(in_features=320, out_features=1280, bias=True)
            (act): GELU(approximate=none)
            (fc2): Linear(in_features=1280, out_features=320, bias=True)
            (drop): Dropout(p=0.0, inplace=False)
          )
        )
        (9): InternImageLayer(
          (norm1): Sequential(
            (0): LayerNorm((320,), eps=1e-06, elementwise_affine=True)
          )
          (dcn): DCNv3(
            (dw_conv): Sequential(
              (0): Conv2d(320, 320, kernel_size=(3, 3), stride=(1, 1), padding=(1, 1), groups=320)
              (1): Sequential(
                (0): to_channels_last()
                (1): LayerNorm((320,), eps=1e-06, elementwise_affine=True)
              )
              (2): GELU(approximate=none)
            )
            (offset): Linear(in_features=320, out_features=360, bias=True)
            (mask): Linear(in_features=320, out_features=180, bias=True)
            (input_proj): Linear(in_features=320, out_features=320, bias=True)
            (output_proj): Linear(in_features=320, out_features=320, bias=True)
          )
          (drop_path): DropPath()
          (norm2): Sequential(
            (0): LayerNorm((320,), eps=1e-06, elementwise_affine=True)
          )
          (mlp): MLPLayer(
            (fc1): Linear(in_features=320, out_features=1280, bias=True)
            (act): GELU(approximate=none)
            (fc2): Linear(in_features=1280, out_features=320, bias=True)
            (drop): Dropout(p=0.0, inplace=False)
          )
        )
        (10): InternImageLayer(
          (norm1): Sequential(
            (0): LayerNorm((320,), eps=1e-06, elementwise_affine=True)
          )
          (dcn): DCNv3(
            (dw_conv): Sequential(
              (0): Conv2d(320, 320, kernel_size=(3, 3), stride=(1, 1), padding=(1, 1), groups=320)
              (1): Sequential(
                (0): to_channels_last()
                (1): LayerNorm((320,), eps=1e-06, elementwise_affine=True)
              )
              (2): GELU(approximate=none)
            )
            (offset): Linear(in_features=320, out_features=360, bias=True)
            (mask): Linear(in_features=320, out_features=180, bias=True)
            (input_proj): Linear(in_features=320, out_features=320, bias=True)
            (output_proj): Linear(in_features=320, out_features=320, bias=True)
          )
          (drop_path): DropPath()
          (norm2): Sequential(
            (0): LayerNorm((320,), eps=1e-06, elementwise_affine=True)
          )
          (mlp): MLPLayer(
            (fc1): Linear(in_features=320, out_features=1280, bias=True)
            (act): GELU(approximate=none)
            (fc2): Linear(in_features=1280, out_features=320, bias=True)
            (drop): Dropout(p=0.0, inplace=False)
          )
        )
        (11): InternImageLayer(
          (norm1): Sequential(
            (0): LayerNorm((320,), eps=1e-06, elementwise_affine=True)
          )
          (dcn): DCNv3(
            (dw_conv): Sequential(
              (0): Conv2d(320, 320, kernel_size=(3, 3), stride=(1, 1), padding=(1, 1), groups=320)
              (1): Sequential(
                (0): to_channels_last()
                (1): LayerNorm((320,), eps=1e-06, elementwise_affine=True)
              )
              (2): GELU(approximate=none)
            )
            (offset): Linear(in_features=320, out_features=360, bias=True)
            (mask): Linear(in_features=320, out_features=180, bias=True)
            (input_proj): Linear(in_features=320, out_features=320, bias=True)
            (output_proj): Linear(in_features=320, out_features=320, bias=True)
          )
          (drop_path): DropPath()
          (norm2): Sequential(
            (0): LayerNorm((320,), eps=1e-06, elementwise_affine=True)
          )
          (mlp): MLPLayer(
            (fc1): Linear(in_features=320, out_features=1280, bias=True)
            (act): GELU(approximate=none)
            (fc2): Linear(in_features=1280, out_features=320, bias=True)
            (drop): Dropout(p=0.0, inplace=False)
          )
        )
        (12): InternImageLayer(
          (norm1): Sequential(
            (0): LayerNorm((320,), eps=1e-06, elementwise_affine=True)
          )
          (dcn): DCNv3(
            (dw_conv): Sequential(
              (0): Conv2d(320, 320, kernel_size=(3, 3), stride=(1, 1), padding=(1, 1), groups=320)
              (1): Sequential(
                (0): to_channels_last()
                (1): LayerNorm((320,), eps=1e-06, elementwise_affine=True)
              )
              (2): GELU(approximate=none)
            )
            (offset): Linear(in_features=320, out_features=360, bias=True)
            (mask): Linear(in_features=320, out_features=180, bias=True)
            (input_proj): Linear(in_features=320, out_features=320, bias=True)
            (output_proj): Linear(in_features=320, out_features=320, bias=True)
          )
          (drop_path): DropPath()
          (norm2): Sequential(
            (0): LayerNorm((320,), eps=1e-06, elementwise_affine=True)
          )
          (mlp): MLPLayer(
            (fc1): Linear(in_features=320, out_features=1280, bias=True)
            (act): GELU(approximate=none)
            (fc2): Linear(in_features=1280, out_features=320, bias=True)
            (drop): Dropout(p=0.0, inplace=False)
          )
        )
        (13): InternImageLayer(
          (norm1): Sequential(
            (0): LayerNorm((320,), eps=1e-06, elementwise_affine=True)
          )
          (dcn): DCNv3(
            (dw_conv): Sequential(
              (0): Conv2d(320, 320, kernel_size=(3, 3), stride=(1, 1), padding=(1, 1), groups=320)
              (1): Sequential(
                (0): to_channels_last()
                (1): LayerNorm((320,), eps=1e-06, elementwise_affine=True)
              )
              (2): GELU(approximate=none)
            )
            (offset): Linear(in_features=320, out_features=360, bias=True)
            (mask): Linear(in_features=320, out_features=180, bias=True)
            (input_proj): Linear(in_features=320, out_features=320, bias=True)
            (output_proj): Linear(in_features=320, out_features=320, bias=True)
          )
          (drop_path): DropPath()
          (norm2): Sequential(
            (0): LayerNorm((320,), eps=1e-06, elementwise_affine=True)
          )
          (mlp): MLPLayer(
            (fc1): Linear(in_features=320, out_features=1280, bias=True)
            (act): GELU(approximate=none)
            (fc2): Linear(in_features=1280, out_features=320, bias=True)
            (drop): Dropout(p=0.0, inplace=False)
          )
        )
        (14): InternImageLayer(
          (norm1): Sequential(
            (0): LayerNorm((320,), eps=1e-06, elementwise_affine=True)
          )
          (dcn): DCNv3(
            (dw_conv): Sequential(
              (0): Conv2d(320, 320, kernel_size=(3, 3), stride=(1, 1), padding=(1, 1), groups=320)
              (1): Sequential(
                (0): to_channels_last()
                (1): LayerNorm((320,), eps=1e-06, elementwise_affine=True)
              )
              (2): GELU(approximate=none)
            )
            (offset): Linear(in_features=320, out_features=360, bias=True)
            (mask): Linear(in_features=320, out_features=180, bias=True)
            (input_proj): Linear(in_features=320, out_features=320, bias=True)
            (output_proj): Linear(in_features=320, out_features=320, bias=True)
          )
          (drop_path): DropPath()
          (norm2): Sequential(
            (0): LayerNorm((320,), eps=1e-06, elementwise_affine=True)
          )
          (mlp): MLPLayer(
            (fc1): Linear(in_features=320, out_features=1280, bias=True)
            (act): GELU(approximate=none)
            (fc2): Linear(in_features=1280, out_features=320, bias=True)
            (drop): Dropout(p=0.0, inplace=False)
          )
        )
        (15): InternImageLayer(
          (norm1): Sequential(
            (0): LayerNorm((320,), eps=1e-06, elementwise_affine=True)
          )
          (dcn): DCNv3(
            (dw_conv): Sequential(
              (0): Conv2d(320, 320, kernel_size=(3, 3), stride=(1, 1), padding=(1, 1), groups=320)
              (1): Sequential(
                (0): to_channels_last()
                (1): LayerNorm((320,), eps=1e-06, elementwise_affine=True)
              )
              (2): GELU(approximate=none)
            )
            (offset): Linear(in_features=320, out_features=360, bias=True)
            (mask): Linear(in_features=320, out_features=180, bias=True)
            (input_proj): Linear(in_features=320, out_features=320, bias=True)
            (output_proj): Linear(in_features=320, out_features=320, bias=True)
          )
          (drop_path): DropPath()
          (norm2): Sequential(
            (0): LayerNorm((320,), eps=1e-06, elementwise_affine=True)
          )
          (mlp): MLPLayer(
            (fc1): Linear(in_features=320, out_features=1280, bias=True)
            (act): GELU(approximate=none)
            (fc2): Linear(in_features=1280, out_features=320, bias=True)
            (drop): Dropout(p=0.0, inplace=False)
          )
        )
        (16): InternImageLayer(
          (norm1): Sequential(
            (0): LayerNorm((320,), eps=1e-06, elementwise_affine=True)
          )
          (dcn): DCNv3(
            (dw_conv): Sequential(
              (0): Conv2d(320, 320, kernel_size=(3, 3), stride=(1, 1), padding=(1, 1), groups=320)
              (1): Sequential(
                (0): to_channels_last()
                (1): LayerNorm((320,), eps=1e-06, elementwise_affine=True)
              )
              (2): GELU(approximate=none)
            )
            (offset): Linear(in_features=320, out_features=360, bias=True)
            (mask): Linear(in_features=320, out_features=180, bias=True)
            (input_proj): Linear(in_features=320, out_features=320, bias=True)
            (output_proj): Linear(in_features=320, out_features=320, bias=True)
          )
          (drop_path): DropPath()
          (norm2): Sequential(
            (0): LayerNorm((320,), eps=1e-06, elementwise_affine=True)
          )
          (mlp): MLPLayer(
            (fc1): Linear(in_features=320, out_features=1280, bias=True)
            (act): GELU(approximate=none)
            (fc2): Linear(in_features=1280, out_features=320, bias=True)
            (drop): Dropout(p=0.0, inplace=False)
          )
        )
        (17): InternImageLayer(
          (norm1): Sequential(
            (0): LayerNorm((320,), eps=1e-06, elementwise_affine=True)
          )
          (dcn): DCNv3(
            (dw_conv): Sequential(
              (0): Conv2d(320, 320, kernel_size=(3, 3), stride=(1, 1), padding=(1, 1), groups=320)
              (1): Sequential(
                (0): to_channels_last()
                (1): LayerNorm((320,), eps=1e-06, elementwise_affine=True)
              )
              (2): GELU(approximate=none)
            )
            (offset): Linear(in_features=320, out_features=360, bias=True)
            (mask): Linear(in_features=320, out_features=180, bias=True)
            (input_proj): Linear(in_features=320, out_features=320, bias=True)
            (output_proj): Linear(in_features=320, out_features=320, bias=True)
          )
          (drop_path): DropPath()
          (norm2): Sequential(
            (0): LayerNorm((320,), eps=1e-06, elementwise_affine=True)
          )
          (mlp): MLPLayer(
            (fc1): Linear(in_features=320, out_features=1280, bias=True)
            (act): GELU(approximate=none)
            (fc2): Linear(in_features=1280, out_features=320, bias=True)
            (drop): Dropout(p=0.0, inplace=False)
          )
        )
        (18): InternImageLayer(
          (norm1): Sequential(
            (0): LayerNorm((320,), eps=1e-06, elementwise_affine=True)
          )
          (dcn): DCNv3(
            (dw_conv): Sequential(
              (0): Conv2d(320, 320, kernel_size=(3, 3), stride=(1, 1), padding=(1, 1), groups=320)
              (1): Sequential(
                (0): to_channels_last()
                (1): LayerNorm((320,), eps=1e-06, elementwise_affine=True)
              )
              (2): GELU(approximate=none)
            )
            (offset): Linear(in_features=320, out_features=360, bias=True)
            (mask): Linear(in_features=320, out_features=180, bias=True)
            (input_proj): Linear(in_features=320, out_features=320, bias=True)
            (output_proj): Linear(in_features=320, out_features=320, bias=True)
          )
          (drop_path): DropPath()
          (norm2): Sequential(
            (0): LayerNorm((320,), eps=1e-06, elementwise_affine=True)
          )
          (mlp): MLPLayer(
            (fc1): Linear(in_features=320, out_features=1280, bias=True)
            (act): GELU(approximate=none)
            (fc2): Linear(in_features=1280, out_features=320, bias=True)
            (drop): Dropout(p=0.0, inplace=False)
          )
        )
        (19): InternImageLayer(
          (norm1): Sequential(
            (0): LayerNorm((320,), eps=1e-06, elementwise_affine=True)
          )
          (dcn): DCNv3(
            (dw_conv): Sequential(
              (0): Conv2d(320, 320, kernel_size=(3, 3), stride=(1, 1), padding=(1, 1), groups=320)
              (1): Sequential(
                (0): to_channels_last()
                (1): LayerNorm((320,), eps=1e-06, elementwise_affine=True)
              )
              (2): GELU(approximate=none)
            )
            (offset): Linear(in_features=320, out_features=360, bias=True)
            (mask): Linear(in_features=320, out_features=180, bias=True)
            (input_proj): Linear(in_features=320, out_features=320, bias=True)
            (output_proj): Linear(in_features=320, out_features=320, bias=True)
          )
          (drop_path): DropPath()
          (norm2): Sequential(
            (0): LayerNorm((320,), eps=1e-06, elementwise_affine=True)
          )
          (mlp): MLPLayer(
            (fc1): Linear(in_features=320, out_features=1280, bias=True)
            (act): GELU(approximate=none)
            (fc2): Linear(in_features=1280, out_features=320, bias=True)
            (drop): Dropout(p=0.0, inplace=False)
          )
        )
        (20): InternImageLayer(
          (norm1): Sequential(
            (0): LayerNorm((320,), eps=1e-06, elementwise_affine=True)
          )
          (dcn): DCNv3(
            (dw_conv): Sequential(
              (0): Conv2d(320, 320, kernel_size=(3, 3), stride=(1, 1), padding=(1, 1), groups=320)
              (1): Sequential(
                (0): to_channels_last()
                (1): LayerNorm((320,), eps=1e-06, elementwise_affine=True)
              )
              (2): GELU(approximate=none)
            )
            (offset): Linear(in_features=320, out_features=360, bias=True)
            (mask): Linear(in_features=320, out_features=180, bias=True)
            (input_proj): Linear(in_features=320, out_features=320, bias=True)
            (output_proj): Linear(in_features=320, out_features=320, bias=True)
          )
          (drop_path): DropPath()
          (norm2): Sequential(
            (0): LayerNorm((320,), eps=1e-06, elementwise_affine=True)
          )
          (mlp): MLPLayer(
            (fc1): Linear(in_features=320, out_features=1280, bias=True)
            (act): GELU(approximate=none)
            (fc2): Linear(in_features=1280, out_features=320, bias=True)
            (drop): Dropout(p=0.0, inplace=False)
          )
        )
      )
      (downsample): DownsampleLayer(
        (conv): Conv2d(320, 640, kernel_size=(3, 3), stride=(2, 2), padding=(1, 1), bias=False)
        (norm): Sequential(
          (0): to_channels_last()
          (1): LayerNorm((640,), eps=1e-06, elementwise_affine=True)
        )
      )
    )
    (3): InternImageBlock(
      (blocks): ModuleList(
        (0): InternImageLayer(
          (norm1): Sequential(
            (0): LayerNorm((640,), eps=1e-06, elementwise_affine=True)
          )
          (dcn): DCNv3(
            (dw_conv): Sequential(
              (0): Conv2d(640, 640, kernel_size=(3, 3), stride=(1, 1), padding=(1, 1), groups=640)
              (1): Sequential(
                (0): to_channels_last()
                (1): LayerNorm((640,), eps=1e-06, elementwise_affine=True)
              )
              (2): GELU(approximate=none)
            )
            (offset): Linear(in_features=640, out_features=720, bias=True)
            (mask): Linear(in_features=640, out_features=360, bias=True)
            (input_proj): Linear(in_features=640, out_features=640, bias=True)
            (output_proj): Linear(in_features=640, out_features=640, bias=True)
          )
          (drop_path): DropPath()
          (norm2): Sequential(
            (0): LayerNorm((640,), eps=1e-06, elementwise_affine=True)
          )
          (mlp): MLPLayer(
            (fc1): Linear(in_features=640, out_features=2560, bias=True)
            (act): GELU(approximate=none)
            (fc2): Linear(in_features=2560, out_features=640, bias=True)
            (drop): Dropout(p=0.0, inplace=False)
          )
        )
        (1): InternImageLayer(
          (norm1): Sequential(
            (0): LayerNorm((640,), eps=1e-06, elementwise_affine=True)
          )
          (dcn): DCNv3(
            (dw_conv): Sequential(
              (0): Conv2d(640, 640, kernel_size=(3, 3), stride=(1, 1), padding=(1, 1), groups=640)
              (1): Sequential(
                (0): to_channels_last()
                (1): LayerNorm((640,), eps=1e-06, elementwise_affine=True)
              )
              (2): GELU(approximate=none)
            )
            (offset): Linear(in_features=640, out_features=720, bias=True)
            (mask): Linear(in_features=640, out_features=360, bias=True)
            (input_proj): Linear(in_features=640, out_features=640, bias=True)
            (output_proj): Linear(in_features=640, out_features=640, bias=True)
          )
          (drop_path): DropPath()
          (norm2): Sequential(
            (0): LayerNorm((640,), eps=1e-06, elementwise_affine=True)
          )
          (mlp): MLPLayer(
            (fc1): Linear(in_features=640, out_features=2560, bias=True)
            (act): GELU(approximate=none)
            (fc2): Linear(in_features=2560, out_features=640, bias=True)
            (drop): Dropout(p=0.0, inplace=False)
          )
        )
        (2): InternImageLayer(
          (norm1): Sequential(
            (0): LayerNorm((640,), eps=1e-06, elementwise_affine=True)
          )
          (dcn): DCNv3(
            (dw_conv): Sequential(
              (0): Conv2d(640, 640, kernel_size=(3, 3), stride=(1, 1), padding=(1, 1), groups=640)
              (1): Sequential(
                (0): to_channels_last()
                (1): LayerNorm((640,), eps=1e-06, elementwise_affine=True)
              )
              (2): GELU(approximate=none)
            )
            (offset): Linear(in_features=640, out_features=720, bias=True)
            (mask): Linear(in_features=640, out_features=360, bias=True)
            (input_proj): Linear(in_features=640, out_features=640, bias=True)
            (output_proj): Linear(in_features=640, out_features=640, bias=True)
          )
          (drop_path): DropPath()
          (norm2): Sequential(
            (0): LayerNorm((640,), eps=1e-06, elementwise_affine=True)
          )
          (mlp): MLPLayer(
            (fc1): Linear(in_features=640, out_features=2560, bias=True)
            (act): GELU(approximate=none)
            (fc2): Linear(in_features=2560, out_features=640, bias=True)
            (drop): Dropout(p=0.0, inplace=False)
          )
        )
        (3): InternImageLayer(
          (norm1): Sequential(
            (0): LayerNorm((640,), eps=1e-06, elementwise_affine=True)
          )
          (dcn): DCNv3(
            (dw_conv): Sequential(
              (0): Conv2d(640, 640, kernel_size=(3, 3), stride=(1, 1), padding=(1, 1), groups=640)
              (1): Sequential(
                (0): to_channels_last()
                (1): LayerNorm((640,), eps=1e-06, elementwise_affine=True)
              )
              (2): GELU(approximate=none)
            )
            (offset): Linear(in_features=640, out_features=720, bias=True)
            (mask): Linear(in_features=640, out_features=360, bias=True)
            (input_proj): Linear(in_features=640, out_features=640, bias=True)
            (output_proj): Linear(in_features=640, out_features=640, bias=True)
          )
          (drop_path): DropPath()
          (norm2): Sequential(
            (0): LayerNorm((640,), eps=1e-06, elementwise_affine=True)
          )
          (mlp): MLPLayer(
            (fc1): Linear(in_features=640, out_features=2560, bias=True)
            (act): GELU(approximate=none)
            (fc2): Linear(in_features=2560, out_features=640, bias=True)
            (drop): Dropout(p=0.0, inplace=False)
          )
        )
      )
    )
  )
  (conv_head): Sequential(
    (0): Conv2d(640, 960, kernel_size=(1, 1), stride=(1, 1), bias=False)
    (1): Sequential(
      (0): BatchNorm2d(960, eps=1e-05, momentum=0.1, affine=True, track_running_stats=True)
    )
    (2): GELU(approximate=none)
  )
  (cabf): AttnCABfc(
    (gabor): AttentionLayerGabor(
      (attn): Sequential(
        (0): IGConv(
          960, 960, kernel_size=(3, 3), stride=(1, 1), padding=(1, 1)
          (gabor): IGabor()
          (bn): BatchNorm2d(960, eps=1e-05, momentum=0.1, affine=True, track_running_stats=True)
        )
        (1): PReLU(num_parameters=1)
        (2): GAMReal_Module(
          (align): Softmax(dim=-1)
        )
        (3): GaborPool()
        (4): Conv2d(960, 960, kernel_size=(3, 3), stride=(1, 1), padding=(1, 1))
        (5): BatchNorm2d(960, eps=1e-05, momentum=0.1, affine=True, track_running_stats=True)
        (6): PReLU(num_parameters=1)
      )
    )
    (gab_): GAB(
      (avg_pool): AdaptiveAvgPool2d(output_size=1)
      (conv2): Sequential(
        (0): Conv2d(960, 960, kernel_size=(1, 1), stride=(1, 1), padding=same)
        (1): ReLU()
        (2): Conv2d(960, 960, kernel_size=(1, 1), stride=(1, 1), padding=same)
      )
      (sigmoid): Sigmoid()
    )
    (cab_): CAB(
      (conv1): Sequential(
        (0): Conv2d(960, 25, kernel_size=(1, 1), stride=(1, 1), padding=same)
        (1): BatchNorm2d(25, eps=1e-05, momentum=0.1, affine=True, track_running_stats=True)
        (2): ReLU()
      )
      (max_pool): AdaptiveMaxPool2d(output_size=1)
      (sigmoid): Sigmoid()
    )
    (avg_pool_): AdaptiveAvgPool2d(output_size=1)
    (fc_): Sequential(
      (0): Linear(in_features=960, out_features=2048, bias=True)
      (1): BatchNorm1d(2048, eps=1e-05, momentum=0.1, affine=True, track_running_stats=True)
      (2): ReLU()
      (3): Dropout(p=0.1, inplace=False)
      (4): Linear(in_features=2048, out_features=2048, bias=True)
      (5): BatchNorm1d(2048, eps=1e-05, momentum=0.1, affine=True, track_running_stats=True)
      (6): ReLU()
      (7): Linear(in_features=2048, out_features=5, bias=True)
      (8): LogSoftmax(dim=1)
    )
  )
)
